collegebot/college_receptionist_data.pth (torch, 7036 bytes, 6 tensors)

l1.weight f4 [8, 79]
-0.16071893 -0.11557178 -0.1032404 -0.2987243 0.4681583 0.27987877 -0.47848827 0.13913213
0.30862156 -0.093541525 -0.008711402 0.16249458 0.058130465 -0.4075556 -0.22999698 0.88827443
0.9499477 0.6880114 0.23290312 -0.4156271 -0.312847 -0.26273158 0.46866152 0.1530965
-0.2687469 -0.36681622 0.31930116 -0.37089437 0.27021226 0.15453352 -0.20569561 -0.06656608
0.0984008 0.061637595 0.5442572 0.4488834 -0.15454684 -0.0424885 0.47004524 -0.32018703
0.46565497 0.46650544 0.5297092 0.10631583 0.24263752 -0.1901705 0.2155723 0.24258545
0.8663358 -0.39127263 -0.1423058 0.28554177 0.07602104 0.052838452 -0.32820338 0.4441438
-0.19232613 -0.07454567 0.16238917 -0.1430308 -0.4519042 -0.3565089 0.20090365 -0.43528295
0.30733943 0.119299546 -0.043990422 0.14725171 0.16670088 -0.0059846584 0.3087261 -0.20615226
-0.009147277 0.2442458 -0.09368533 0.07091568 0.22519283 -0.10007766 -0.23894896 0.008472702
-0.055035915 0.092063315 -0.23319665 0.32668543 0.51574403 -0.043438654 0.544716 -0.1336244
0.6499719 0.41280767 0.4959605 0.2484388 -0.28229547 -0.26032993 -0.005853817 -0.085528806
0.80804235 -0.4085627 0.14925429 -0.40309083 0.012735389 0.31420225 0.17968379 -0.33780748
0.38127202 -0.08821543 -0.21830778 -0.13372433 0.54140574 0.64225185 0.25787705 0.30308503
0.3188596 -0.30282754 0.84354436 0.47713205 0.026595253 -0.43652138 -0.16966063 -0.40955728
-0.4365992 0.45726156 0.20973817 -0.13202287 -0.09690614 0.026604706 0.4022825 0.7212344
-0.40702078 0.058077805 -0.13362548 0.41807747 0.15821776 -0.13501376 0.36704588 -0.14626771
-0.25931537 0.23640698 -0.0002509805 -0.5044777 -0.27606472 0.2621776 0.5710038 0.5051818
0.1320212 -0.07448832 0.4736827 0.5832267 0.12649779 0.1997371 -0.06730209 0.09233384
0.375271 -0.08773366 0.16784778 -0.20314501 -0.29759562 0.19596471 -0.075474136 0.49920058
0.09634809 0.4735512 -0.2889465 -0.31133932 -0.4417007 0.5427422 -0.11169165 -0.14072435
0.3425891 0.57027286 0.30978686 0.5013148 0.4330191 -0.11459413 -0.111586064 0.15996858
0.19311716 -0.4612278 -0.45228532 0.24530599 -0.21047556 0.487835 0.47283018 0.29941085
0.30348694 -0.44826895 -0.11170163 -0.5890775 0.34454596 0.36040774 0.39990792 0.36004445
-0.3591653 0.15873815 -0.3701489 0.5348528 -0.46901923 0.49148053 -0.47084877 -0.4709237
0.030138947 0.06104579 0.45581487 0.62394613 0.17255099 -0.036851447 -0.071490616 -0.39598355
0.44924945 -0.11184639 0.34866762 0.069383934 0.7900613 -0.24531975 -0.15952678 0.32625234
0.18125592 -0.16181836 0.49754798 0.67172354 0.62892175 0.45620653 -0.016262367 0.103275925
0.46553817 -0.34424278 -0.43458867 0.0066995313 0.07352364 0.27290156 0.019918451 -0.3236892
0.17871633 0.35922033 0.21309301 0.31510502 0.465756 -0.03854751 0.44847864 0.19555315
-0.4716508 -0.021973293 0.9109105 -0.21921887 -0.18284564 0.2505891 0.588788 -0.10887621
-0.15788126 0.005167779 0.28932852 -0.39993986 -0.42353407 -0.42447922 0.8537913 -0.08129624
00000000: 8193 24be e6b0 ecbd b46f d3bd 64f2 98be
00000010: 72b2 ef3e 454c 8f3e 6afc f4be a778 0e3e
00000020: a503 9e3e b392 bfbd 45ba 0ebc fb64 263e
00000030: 361a 6e3d 21ab d0be 5484 6bbe f465 633f
00000040: c62f 733f 8421 303f 287e 6e3e 13cd d4be
00000050: 7b2d a0be c184 86be 67f4 ef3e 54c5 1c3e
00000060: 3299 89be 56cf bbbe 717b a33e dee5 bdbe
00000070: 4359 8a3e 093e 1e3e dfa1 52be cc53 88bd
00000080: 5c86 c93d b477 7c3d 7154 0b3f 0cd4 e53e
00000090: 8741 1ebe 6c08 2ebd c5a9 f03e 8eef a3be
000000a0: 546a ee3e cdd9 ee3e 069b 073f 1dbc d93d
000000b0: f875 783e 0ebc 42be fcbe 5c3e 5268 783e
000000c0: 2fc8 5d3f e354 c8be 9db8 11be 8832 923e
000000d0: ebb0 9b3d 226d 583d 460a a8be d166 e33e
000000e0: 24f1 44be 66ab 98bd 5949 263e ab76 12be
000000f0: fd5f e7be 5688 b6be b0b9 4d3e 68dd debe
00000100: 985b 9d3e 5253 f43d 4d2f 34bd 27c9 163e
00000110: a3b3 2a3e f41a c4bb 5911 9e3e 9419 53be
00000120: 76de 15bc 921b 7a3e 18de bfbd 3d3c 913d
00000130: f398 663e 84f5 ccbd 09af 74be 16d1 0a3c
00000140: 576d 61bd b18b bc3d 1acb 6ebe 5043 a73e
00000150: cd07 043f bbec 31bd 8272 0b3f d6d4 08be
00000160: 8f64 263f 875b d33e 89ee fd3e be66 7e3e
00000170: 0889 90be f749 85be 60d1 bfbb ba29 afbd
00000180: dddb 4e3f 212f d1be 1ed6 183e ec61 cebe
00000190: 18a8 503c 1edf a03e 07ff 373e 1af5 acbe
000001a0: 1636 c33e 4baa b4bd 138c 5fbe 08ef 08be
000001b0: 9199 0a3f 9e6a 243f 7608 843e f62d 9b3e
000001c0: 9141 a33e 360c 9bbe 86f2 573f a74a f43e
000001d0: 4ade d93c bb7f dfbe 84bb 2dbe 7eb1 d1be
000001e0: ee89 dfbe 301e ea3e 9ac5 563e 0131 07be
000001f0: ba76 c6bd 1df2 d93c f9f7 cd3e d1a2 383f
00000200: 0765 d0be fee2 6d3d 1ed5 08be 400e d63e
00000210: d603 223e 0c41 0abe 70ed bb3e 34c7 15be
00000220: fcc4 84be ac14 723e 0896 83b9 7325 01bf
00000230: 5b58 8dbe 243c 863e 4e2d 123f 9853 013f
00000240: 9130 073e 558d 98bd 8a86 f23e 584e 153f
00000250: a388 013e e287 4c3e aed5 89bd 8619 bd3d
00000260: 8523 c03e b5ad b3bd 4ae0 2b3e 3f05 50be
00000270: 745e 98be f9aa 483e 2f92 9abd 3897 ff3e
00000280: 2652 c53d 4e75 f23e ccf0 93be de67 9fbe
00000290: 9826 e2be 27f1 0a3f 97be e4bd 0b1a 10be
000002a0: d767 af3e 67fd 113f 629c 9e3e 2b56 003f
000002b0: aeb4 dd3e 54b0 eabd 3c87 e4bd cece 233e
000002c0: 81c0 453e 0d26 ecbe f191 e7be 7e31 7b3e
000002d0: e886 57be 82c5 f93e cc16 f23e 614c 993e
000002e0: a462 9b3e 8283 e5be d3c3 e4bd c8cd 16bf
000002f0: 5468 b03e 5d87 b83e bbc0 cc3e bf57 b83e
00000300: 84e4 b7be 418c 223e 2884 bdbe 1dec 083f
00000310: 4a23 f0be 56a3 fb3e 1713 f1be e91c f1be
00000320: f4e5 f63c 260b 7a3d 9160 e93e efba 1f3f
00000330: 35b1 303e 8bf1 16bd ac69 92bd 5bbe cabe
00000340: 0604 e63e b80f e5bd 9084 b23e 2a19 8e3d
00000350: 7541 4a3f 1a35 7bbe fd5a 23be 8c0a a73e
00000360: 279b 393e b6b3 25be 9cbe fe3e 13f6 2b3f
00000370: 0401 213f e793 e93e a838 85bc 5482 d33d
00000380: 055b ee3e 9740 b0be 6882 debe be87 db3b
00000390: 9093 963d c1b9 8b3e 052c a33c 97ba a5be
000003a0: 6a01 373e baeb b73e 0e35 5a3e 7255 a13e
000003b0: 9277 ee3e fee3 1dbd fe9e e53e 163f 483e
000003c0: 377c f1be 5601 b4bc 6e31 693f e97a 60be
000003d0: e33b 3bbe 374d 803e cfba 163f 7efa debd
000003e0: a0ab 21be 7956 a93b de22 943e ebc4 ccbe
000003f0: 75d9 d8be 5755 d9be 1192 5a3f a57e a6bd

l1.bias f4 [8]
0.6934436 0.43656707 0.47087198 0.89797413 0.43282554 0.8900046 0.46604985 0.3196829
00000000: 8585 313f b885 df3e 2216 f13e a2e1 653f
00000010: 4f9b dd3e 57d7 633f 169e ee3e 7aad a33e

l2.weight f4 [8, 8]
1.3363051 1.0700592 -0.9904826 1.2474494 -0.82862455 0.95127964 -0.4703126 -0.11179477
0.55623037 1.1995001 -0.47591874 -0.13966791 0.92810106 -0.07766589 0.97669303 1.1516466
0.8094155 -0.4579781 0.4937464 0.4408706 -0.77366316 0.85036427 0.9020202 -0.9163999
0.4812074 0.04984641 0.76684844 0.08922681 0.02746245 1.1306562 -0.71174556 -0.93093294
0.14220195 -0.24121076 1.2372019 -0.42313436 0.7874714 0.22950007 -0.28279683 -0.46169272
-0.115829006 0.102081075 -0.8101419 -0.038696337 0.36809868 1.3380587 -0.37733528 1.011086
0.90648913 0.7804201 0.65426666 -1.0911171 0.79232794 -0.009059231 -0.31591973 -0.50404763
-0.16822843 1.2496858 0.87362283 1.3709227 0.42781144 -0.7827115 0.8283141 -0.3900489
00000000: 0c0c ab3f b3f7 883f 4590 7dbf 6cac 9f3f
00000010: bd20 54bf 1087 733f d0cc f0be a8f4 e4bd
00000020: 1d65 0e3f 3889 993f 9fab f3be 1b05 0fbe
00000030: 0898 6d3f 4b0f 9fbd 8e08 7a3f 2869 933f
00000040: db35 4f3f 1b7c eabe 54cc fc3e cbb9 e13e
00000050: ca0e 46bf 79b1 593f ccea 663f 2f99 6abf
00000060: d160 f63e c02b 4c3d 2e50 443f 8cbc b63d
00000070: eff8 e03c 58b9 903f f534 36bf 9f51 6ebf
00000080: 639d 113e f4ff 76be a25c 9e3f 11a5 d8be
00000090: ba97 493f 1102 6b3e bfca 90be fd62 ecbe
000000a0: c237 edbd e20f d13d 7665 4fbf 0d80 1ebd
000000b0: 6e77 bc3e 8245 ab3f 1732 c1be 446b 813f
000000c0: ac0f 683f 9dc9 473f 057e 273f baa9 8bbf
000000d0: 01d6 4a3f 2b6d 14bc 3bc0 a1be 4409 01bf
000000e0: 1344 2cbe b4f5 9f3f bfa5 5f3f 657a af3f
000000f0: 1a0a db3e c85f 48bf 650c 543f 7db4 c7be

l2.bias f4 [8]
0.40245417 -0.2530277 0.273366 0.7896553 0.20222987 0.13346703 0.10373664 0.03217069
00000000: 790e ce3e d98c 81be a1f6 8b3e da26 4a3f
00000010: 5915 4f3e 95ab 083e e073 d43d 6ac5 033d

l3.weight f4 [9, 8]
-1.1709291 -0.3975544 -1.5815996 -0.046758268 0.6386404 -1.4402193 0.8725748 0.19290595
-0.81213814 0.6767079 -1.374287 -1.1142361 -0.5666206 0.6156946 -0.63132304 -1.312721
-1.2052149 -1.6851798 -0.04533625 0.8255257 0.6296258 0.10875052 0.17361686 -0.97898597
0.7407297 0.032386098 -1.5497324 -0.32206163 -1.1425807 0.24063526 -1.1013892 -0.29346427
-0.72818947 0.6833861 -1.3297303 -1.1181201 -0.4186563 -1.0452893 -0.28908956 0.7443824
0.61083233 -0.1779412 0.37686315 -0.078486495 -1.777985 -1.7046633 -0.5476691 0.3512814
0.9170159 -1.1907874 0.7325805 0.2632812 -1.0809115 -0.02822931 -0.95085466 -1.6749202
-1.2601287 -0.9178902 0.53869784 -0.021745054 0.40651932 -1.2249023 -1.3574264 0.7352114
0.27282515 0.26596013 -0.07688868 -0.25062594 0.0687807 -0.81402504 0.61021435 -1.2356093
00000000: 01e1 95bf 408c cbbe db71 cabf 9985 3fbd
00000010: f07d 233f 1b59 b8bf 1061 5f3f 2389 453e
00000020: 49e8 4fbf bb3c 2d3f a3e8 afbf 4a9f 8ebf
00000030: 0c0e 11bf 299e 1d3f 639e 21bf 3e07 a8bf
00000040: 7b44 9abf f9b3 d7bf 81b2 39bd a755 533f
00000050: 282f 213f 98b8 de3d 9ec8 313e d39e 7abf
00000060: 76a0 3d3f 49a7 043d a25d c6bf 43e5 a4be
00000070: 1640 92bf 1769 763e 52fa 8cbf f340 96be
00000080: a06a 3abf 64f2 2e3f 9a34 aabf 8f1e 8fbf
00000090: 1e5a d6be 0acc 85bf 8c03 94be d88f 3e3f
000000a0: 825f 1c3f 3836 36be 35f4 c03e 87bd a0bd
000000b0: 0395 e3bf 6832 dabf 0b34 0cbf 28db b33e
000000c0: 8ec1 6a3f b96b 98bf 658a 3b3f cbcc 863e
000000d0: 4f5b 8abf 2741 e7bc 366b 73bf c963 d6bf
000000e0: e64b a1bf dafa 6abf 1ae8 093f af22 b2bc
000000f0: 4d23 d03e 99c9 9cbf 26c0 adbf d036 3c3f
00000100: bdaf 8b3e ed2b 883e d077 9dbd 0b52 80be
00000110: e5dc 8c3d f263 50bf 0237 1c3f 7228 9ebf

l3.bias f4 [9]
-0.43692335 0.22584678 0.11296769 -0.08396417 0.011778436 -0.37801835 0.18123436 0.028790848
-0.24471457
00000000: 6bb4 dfbe 6144 673e 9b5b e73d 68f5 abbd
00000010: 57fa 403c 9f8b c1be 8095 393e c9da eb3c
00000020: 7596 7abe
