collegebot/college_receptionist_data.pth (torch, 7548 bytes, 6 tensors)

l1.weight f4 [8, 89]
0.3531294 0.020264575 -0.0323847 0.46897292 0.38553214 -0.91888076 0.4866781 -0.7704176
0.3548535 0.08914384 0.07710868 -0.33380744 -0.60088587 0.13899261 0.27205002 0.07253808
0.61936396 0.5435563 -0.72228307 -0.07360209 0.07000978 0.4932358 0.18353085 0.3119793
0.3572759 -0.33938918 -0.49637187 0.16660643 0.5111321 0.16545515 -0.15535997 0.4191785
0.36193433 -0.47905046 0.06631081 0.74294835 -0.49560413 -0.50233847 -0.61687636 0.526019
-0.6065056 -0.5312406 -0.005412432 0.55927014 0.15781093 0.42751282 0.4620604 0.51808286
0.6472854 0.5133604 0.108358465 0.78286976 -0.29490614 0.5290138 0.45245805 -0.06633275
0.38333723 0.485402 0.24607725 0.10903717 -0.24857336 0.31576815 0.22437184 -0.016948191
0.1466618 0.36081752 0.08785034 -0.0073872968 0.210243 -0.35834673 0.6771329 -0.2511503
0.24166659 -0.054145403 0.20952266 -0.5059701 -0.42961589 -0.0753005 0.028122373 -0.09158371
0.6119224 0.30989406 0.20151275 -0.37100837 0.27956176 -0.5018842 0.29503176 0.20153764
0.117357366 0.10848154 0.3067695 0.5599035 -0.3783397 0.28340912 0.32507354 0.1314354
1.3967524 -0.1675898 0.309719 0.60531384 0.48827466 0.8163004 0.42171627 -0.27985168
0.47649387 0.6214118 0.62397623 -0.62995315 0.42035323 0.7543526 0.37584218 0.26672688
0.23378038 -0.040284675 -0.37368655 0.61523795 -0.34393185 -0.005467074 0.64191526 0.611896
0.05562068 -0.1537691 0.79473615 0.7676657 -0.70533633 0.49761194 0.4713637 0.47422957
-0.15234187 -0.63036436 0.47323462 -0.084544264 -0.39534718 -0.10352378 -0.44671375 -0.44550082
0.4554318 0.27442798 0.3324306 0.027329117 0.37978438 -0.13409407 0.54269433 -0.026079813
0.25573647 -0.16539969 -0.5472809 -0.45465097 -0.25565907 -0.32288408 0.014553563 0.31844443
0.47612533 -0.4529116 0.02578978 0.32762975 0.33710226 -0.28154445 0.6649214 -0.22180836
-0.19120055 -0.19727293 0.75186455 -0.12620561 0.42302734 0.60473895 0.6432846 0.70877206
0.44726083 0.6943006 0.28562933 -0.20407173 0.62694764 0.6157582 0.64681065 0.39500517
0.2732116 -0.30515882 -0.24332464 0.16778778 0.26829988 0.30481666 -0.3186684 0.80809045
-0.39076367 0.07915387 0.6173668 -0.17320883 0.09975739 0.5042236 0.3992686 0.12804958
0.023803633 0.0324842 -0.30909446 -0.21478249 0.09602106 -0.13214216 -0.65346944 -0.39342213
-0.037008077 -0.20803529 0.11776008 0.2178769 0.30634978 0.52354413 -0.6374274 0.23180749
-0.26251456 -0.3708675 0.58291894 0.6204053 -0.72534096 -0.34467927 0.45161188 0.5097015
0.44558477 0.84281707 0.16450627 0.67114574 0.13618374 0.73127156 0.051414713 0.6270483
0.7572118 -0.58621347 -0.3405499 -0.064813636 0.1776664 -0.35700035 0.31261918 -0.55136144
-0.49164563 0.2219009 0.5875863 0.20067781 0.027829286 0.11400238 0.37205294 -0.26723564
0.022322353 -0.21175438 -0.113181286 -0.20492744 0.6662594 -0.22832353 0.14819188 0.5364274
-0.5441794 0.41220716 -0.12822837 -0.38835692 0.029013757 0.47447753 0.53989387 -0.45316797
00000000: 60cd b43e e501 a63c d2a5 04bd 381d f03e
00000010: 7864 c53e c53b 6bbf df2d f93e 163a 45bf
00000020: 5caf b53e 0c91 b63d 28eb 9d3d cfe8 aabe
00000030: a8d3 19bf 1454 0e3e 244a 8b3e d88e 943d
00000040: a38e 1e3f 8126 0b3f 8be7 38bf b1bc 96bd
00000050: 4a61 8f3d 6789 fc3e 83ef 3b3e c0bb 9f3e
00000060: deec b63e 6bc4 adbe 7424 febe e09a 2a3e
00000070: 8ed9 023f 136d 293e af16 1fbe 909e d63e
00000080: 754f b93e 1a46 f5be f6cd 873d dd31 3e3f
00000090: d3bf fdbe 4199 00bf 9ceb 1dbf 2ea9 063f
000000a0: f343 1bbf 62ff 07bf c55a b1bb 542c 0f3f
000000b0: 3099 213e f6e2 da3e 2e93 ec3e 14a1 043f
000000c0: 7fb4 253f 966b 033f 0beb dd3d 276a 483f
000000d0: f0fd 96be 736d 073f 95a8 e73e 77d9 87bd
000000e0: c744 c43e 9c86 f83e adfb 7b3e e14e df3d
000000f0: 048a 7ebe 5dac a13e bbc1 653e efd6 8abc
00000100: 832e 163e 13bd b83e e1ea b33d 2311 f2bb
00000110: f149 573e 3979 b7be 9558 2d3f c696 80be
00000120: 7277 773e 92c7 5dbd 1c8d 563e 4287 01bf
00000130: 9df6 dbbe 2637 9abd e460 e63c 3d90 bbbd
00000140: f2a6 1c3f 6faa 9e3e 5c59 4e3e cff4 bdbe
00000150: b822 8f3e 7c7b 00bf 670e 973e e25f 4e3e
00000160: 0f59 f03d 922b de3d e410 9d3e d655 0f3f
00000170: beb5 c1be 001b 913e 0a70 a63e 0097 063e
00000180: c8c8 b23f a99c 2bbe 7d93 9e3e d9f5 1a3f
00000190: 23ff f93e 10f9 503f 32eb d73e b848 8fbe
000001a0: 01f7 f33e d814 1f3f e8bc 1f3f 9c44 21bf
000001b0: 8a38 d73e 411d 413f 636e c03e 6d90 883e
000001c0: 2064 6f3e 8b01 25bd d853 bfbe 3c80 1d3f
000001d0: d617 b0be 2425 b3bb 8f54 243f 37a5 1c3f
000001e0: 83d2 633d a675 1dbe d473 4b3f bd85 443f
000001f0: ec90 34bf fec6 fe3e 9556 f13e 38ce f23e
00000200: 82ff 1bbe 8f5f 21bf cf4b f23e 8b25 adbd
00000210: f26a cabe 4704 d4bd aab7 e4be af18 e4be
00000220: 5b2e e93e d381 8c3e 5834 aa3e 50e1 df3c
00000230: 1973 c23e f54f 09be 04ee 0a3f 55a5 d5bc
00000240: e4ef 823e 895e 29be 9a1a 0cbf 03c8 e8be
00000250: bfe5 82be 1051 a5be 1172 6e3c 260b a33e
00000260: b3c6 f33e 07e4 e7be 1745 d33c 16bf a73e
00000270: ab98 ac3e 9826 90be 4a38 2a3f bb21 63be
00000280: 14ca 43be ea01 4abe 327a 403f 0b3c 01be
00000290: 0a97 d83e 2cd0 1a3f 4dae 243f 1672 353f
000002a0: 5fff e43e afbd 313f 023e 923e 2ef8 50be
000002b0: a47f 203f 54a2 1d3f 6295 253f 1e3e ca3e
000002c0: 64e2 8b3e c73d 9cbe 182a 79be 8fd0 2b3e
000002d0: 9a5e 893e ee10 9c3e 8128 a3be 04df 4e3f
000002e0: 2d12 c8be 6d1b a23d c00b 1e3f a85d 31be
000002f0: 9a4d cc3d cc14 013f ef6c cc3e 6e1f 033e
00000300: d6ff c23c 270e 053d a141 9ebe f1ef 5bbe
00000310: b1a6 c43d 4650 07be c649 27bf a06e c9be
00000320: c895 17bd 3407 55be 322c f13d 1f1b 5f3e
00000330: e1d9 9c3e fd06 063f 712e 23bf f15e 6d3e
00000340: 4f68 86be 58e2 bdbe 2d3a 153f e2d2 1e3f
00000350: f2af 39bf cd79 b0be ac39 e73e cc7b 023f
00000360: b023 e43e dcc2 573f 5574 283e 35d0 2b3f
00000370: c073 0b3e 9d34 3b3f 3c98 523d 3d86 203f
00000380: a2d8 413f 1612 16bf 8e5c aebe 03bd 84bd
00000390: 2eee 353e c0c8 b6be 9f0f a03e 0626 0dbf
000003a0: fab8 fbbe fd39 633e 0e6c 163f 7c7e 4d3e
000003b0: 3efa e33c 147a e93d b97d be3e 1cd3 88be
000003c0: 5edd b63c 24d6 58be 97cb e7bd 80d8 51be
000003d0: fa8f 2a3f a5cd 69be 9dbf 173e 4e53 093f
000003e0: 574f 0bbf d10c d33e 4c4e 03be b8d6 c6be
000003f0: 42ae ed3c b8ee f23e 7c36 0a3f a205 e8be

l1.bias f4 [8]
0.7706684 0.6301473 0.98179805 -0.10562791 0.62372905 0.5906537 0.6193943 0.504626
00000000: 864a 453f 5551 213f 1e57 7b3f 7253 d8bd
00000010: b5ac 1f3f 1535 173f a090 1e3f 2b2f 013f

l2.weight f4 [8, 8]
0.9762863 1.4273074 1.3091086 -0.16577898 1.5088022 -1.4360981 -1.2846012 -0.22000022
0.25576448 -0.5494017 -0.36858916 0.16368142 1.2000096 0.50754994 -0.044493884 0.87778986
1.5242062 0.807603 -1.4857396 0.33107993 -0.86170864 0.21605758 0.46924478 1.1121829
-0.020996474 -0.25289068 1.2196289 0.0011113584 -0.797316 1.1675168 1.6187304 1.3740762
0.56124306 -1.0222973 0.46009743 -0.16541222 1.011729 0.26769948 0.54174846 0.6147246
0.6563854 -0.8588342 0.90707195 -0.15602127 0.31085363 1.3929765 -0.7105961 0.10851046
-1.057842 1.1926857 0.17282678 0.15288755 1.2132891 0.96449935 -0.0065949536 0.6643278
1.0500747 0.037761718 -0.4966192 -0.02531153 0.009878065 1.1131802 -0.8566978 0.7444875
00000000: e6ed 793f 02b2 b63f df90 a73f f7c1 29be
00000010: 6e20 c13f 10d2 b7bf d06d a4bf bd47 61be
00000020: 90f3 823e 97a5 0cbf b8b7 bcbe 1a9c 273e
00000030: ea99 993f cbee 013f 383f 36bd d6b6 603f
00000040: 3019 c33f 12bf 4e3f b72c bebf 4f83 a93e
00000050: f098 5cbf 333e 5d3e da40 f03e 025c 8e3f
00000060: cc00 acbc e37a 81be cd1c 9c3f 00ab 913a
00000070: e71c 4cbf 3171 953f 8f32 cf3f bbe1 af3f
00000080: a0ad 0f3f a3da 82bf e491 eb3e d261 29be
00000090: 5680 813f e80f 893e 07b0 0a3f 975e 1d3f
000000a0: e008 283f 8fdc 5bbf de35 683f 0ac4 1fbe
000000b0: 3528 9f3e 0e4d b23f a0e9 35bf bb3a de3d
000000c0: 5e67 87bf eda9 983f 81f9 303e 8e8e 1c3e
000000d0: 0f4d 9b3f 6ee9 763f 7b1a d8bb 6311 2a3f
000000e0: d968 863f 08ac 1a3d df44 febe 205a cfbc
000000f0: 9cd7 213c b07c 8e3f 8c50 5bbf bc96 3e3f

l2.bias f4 [8]
0.8136446 -0.17850617 0.23401222 0.33490148 0.16689152 0.14659348 -0.07003221 -0.0647183
00000000: 034b 503f 52ca 36be e6a0 6f3e 3578 ab3e
00000010: 9ce5 2a3e 9a1c 163e 0c6d 8fbd 078b 84bd

l3.weight f4 [10, 8]
0.6419026 -1.5357996 -1.2128083 -1.4024123 -0.8656767 -1.7477492 0.6021425 -1.6583172
-1.177079 -1.4092395 0.6137117 0.32709482 -1.5022539 -0.6259828 0.20590965 0.2876973
0.36675933 -2.0905108 0.7326201 -0.88076913 -1.8393009 -0.88271564 -1.7925742 0.16159783
0.3092936 0.5807448 -1.6218582 -0.8717998 -0.18560773 -0.05180264 -0.2929064 -0.22220694
-0.2672806 -0.67359984 -1.1310737 0.56494963 -0.7995112 -1.157022 0.4880903 -1.1900581
-1.0987163 0.27720368 -0.026878936 -0.21794653 -0.15459046 0.5549867 -0.41684982 0.5301429
-1.6651717 0.7617346 -1.6602188 0.38354665 0.6852031 0.064419396 -0.15471083 -0.5899647
0.19343378 -1.818197 -1.4101713 0.5162182 0.25628707 0.8563634 -2.0742404 0.07379412
-0.6571954 -1.0829788 0.2080333 0.94369704 0.52861345 -1.6055777 -1.5961337 -1.2906269
-0.04258306 0.3989374 0.25017488 -0.68000066 0.00014469438 -1.366869 -0.55538255 -0.17808807
00000000: bb53 243f 1595 c4bf 4d3d 9bbf 3f82 b3bf
00000010: fd9c 5dbf 3fb6 dfbf 0326 1a3f bd43 d4bf
00000020: 86aa 96bf f661 b4bf 361c 1d3f f978 a73e
00000030: db49 c0bf 6940 20bf fbd9 523e 0f4d 933e
00000040: e1c7 bb3e eeca 05c0 fe8c 3b3f 167a 61bf
00000050: 366e ebbf a7f9 61bf 1273 e5bf e779 253e
00000060: bb5b 9e3e b1ab 143f 0d99 cfbf 462e 5fbf
00000070: f40f 3ebe 012f 54bd d4f7 95be 378a 63be
00000080: 01d9 88be 0a71 2cbf 06c7 90bf 8aa0 103f
00000090: c4ac 4cbf 4c19 94bf f9e6 f93e d353 98bf
000000a0: bca2 8cbf a4ed 8d3e 3731 dcbc 602d 5fbe
000000b0: f64c 1ebe 9c13 0e3f 576d d5be 72b7 073f
000000c0: 5924 d5bf 0a01 433f 0d82 d4bf 3a60 c43e
000000d0: 7869 2f3f 51ee 833d 846c 1ebe ed07 17bf
000000e0: 8113 463e aeba e8bf 7e80 b4bf e026 043f
000000f0: 0f38 833e a23a 5b3f 5bc0 04c0 5f21 973d
00000100: f53d 28bf 0d9f 8abf ae06 553e 2196 713f
00000110: 3653 073f 9283 cdbf 1c4e ccbf 4333 a5bf
00000120: 936b 2ebd 8641 cc3e ec16 803e 8614 2ebf
00000130: 1ab9 1739 90f5 aebf 8d2d 0ebf b85c 36be

l3.bias f4 [10]
0.55427164 -0.07343567 0.21813427 0.1249258 0.05325179 -0.49742258 0.14425892 0.49349666
-0.07686213 -0.20636584
00000000: bfe4 0d3f 7165 96bd 975e 5f3e 19d9 ff3d
00000010: 8d1e 5a3d 2cae febe 9cb8 133e 98ab fc3e
00000020: e469 9dbd 9151 53be
