collegebot/college_receptionist_data.pth (torch, 7804 bytes, 6 tensors)

l1.weight f4 [8, 94]
000000 60 99 1e bd 90 20 7c 3e 53 c8 7d 3e e7 2f e5 be
       -0.03872049 0.24621797 0.24783449 -0.4476311
000010 af 37 62 be 83 7d 42 3f 2b aa 2b 3d 1e 45 42 3b
       -0.22091554 0.75972766 0.04191033 0.0029643248
000020 10 92 54 bf 69 aa 9b 3e 50 2e 9f 3e 1f 5e 7f 3f
       -0.83035374 0.3040345 0.3109002 0.9975299
000030 8d 7b 8c bd 4c e2 c5 be 22 81 ad 3e 59 66 a8 be
       -0.06859503 -0.38649213 0.33887583 -0.32890585
000040 f8 40 5f 3e 1a 2c e2 bd 10 0c bc bd f8 ee 8c be
       0.21802127 -0.11043568 -0.09181988 -0.2752607
000050 6b 05 e3 3e c5 a7 71 3f 81 ae dd bd 0a 61 58 3f
       0.4434007 0.9439662 -0.108242996 0.8452307
000060 bc 6a 93 bd ec f2 8c bd ab f3 4d be 7a e7 72 be
       -0.07198092 -0.06882271 -0.20112483 -0.23721114
000070 b2 ad 12 bf 04 46 d7 3e ee e0 99 be e3 56 43 3f
       -0.5729629 0.42045605 -0.3005442 0.76304454
000080 db 77 27 3d 95 48 da 3e c6 62 64 3f 46 98 1f 3f
       0.040885787 0.426335 0.89213216 0.62341726
000090 a4 b9 57 3f eb 4b 75 3e 88 57 98 bd 9d 1d 70 be
       0.8426764 0.23954742 -0.0743857 -0.23448797
0000a0 ba d2 30 3f 6a 18 08 be 9e c7 2d 3f a9 4a f4 3d
       0.69071543 -0.13290563 0.67882717 0.11928303
0000b0 cf 2f 2b 3f 4e ee 66 be 6c b5 1f 3f 92 e9 1d 3f
       0.66869825 -0.22551844 0.623862 0.61684525
0000c0 b9 22 33 bf 8a 7b b0 3e 2d 1c a5 be 7b a0 ab bd
       -0.6997486 0.34469253 -0.3224806 -0.083802186
0000d0 19 78 b5 bb d0 3b ad bd c7 a3 b8 be 03 bf 80 be
       -0.0055379984 -0.08458674 -0.36062452 -0.2514573
0000e0 7d 81 a9 bd b5 e9 e0 3c b9 99 b5 3e 94 be e3 3e
       -0.08276651 0.02745519 0.35468844 0.44481337
0000f0 2d 13 ee 3e 3d 16 80 be 70 d9 10 be 25 fa f6 bd
       0.46499005 -0.25016966 -0.14145446 -0.1205943
000100 ed 1b ac be 18 eb 36 bd da 4e d0 be 06 59 cf 3e
       -0.33615056 -0.044657797 -0.4068516 0.40497607
000110 a9 05 dd 3e e3 07 e7 bd 75 62 a8 bb 6d f9 86 3e
       0.4316838 -0.11280801 -0.00513869 0.26362172
000120 f8 59 05 bf 9a d1 fd be 0a 8f ec 3d cd 03 b5 bc
       -0.52090406 -0.49573976 0.1155072 -0.022096539
000130 ef 5b 9b 3e 74 2c e6 3e 43 50 13 be 48 93 5e 3f
       0.30343577 0.4495579 -0.14386086 0.86943483
000140 e0 20 3e 3f e0 fb e7 3e c0 3a ed 3e 51 4d 38 be
       0.74268913 0.45309353 0.46333885 -0.17998244
000150 a1 cb 8c 3e 2e b1 bf 3e 65 6c ab 3e 19 41 b8 3e
       0.27499107 0.37439865 0.33481136 0.35987166
000160 90 c6 07 3f e9 59 a0 3e 4f 7f 88 be 7c 48 c3 be
       0.5303736 0.31318596 -0.2665963 -0.3814124
000170 eb 08 2d be 05 e2 c7 be b3 b7 14 3d 9b 58 9b 3e
       -0.16897933 -0.39039627 0.036308 0.30341038
000180 41 fd 82 3e 7d 3f d5 be 22 87 8e 3e ca 09 a2 3e
       0.25583842 -0.4165 0.27837473 0.31648093
000190 e2 58 1e be 47 c3 1f 3f 96 10 2b 3f 61 2c ee 3e
       -0.15463594 0.62407345 0.66822183 0.46518233
0001a0 a3 98 98 3e e2 71 e0 bd 3e a5 85 3e ed 12 ad 3e
       0.29803953 -0.109592214 0.26102632 0.33803502
0001b0 44 97 41 3d a6 c1 f9 3e a7 d2 44 3e 80 55 63 3e
       0.0472634 0.48780555 0.19220982 0.22200584
0001c0 1f ca 35 3e d3 b2 df be c8 2d ce 3e 2c 55 11 3f
       0.17752884 -0.4369112 0.40269303 0.56770587
0001d0 16 5d be 3e a4 02 34 be c6 9f 18 3d 4b 66 06 bf
       0.37180394 -0.17579132 0.037261747 -0.52499837
0001e0 1a 36 ac be 2c c2 1e 3e d1 9f 03 bf 76 86 19 be
       -0.33635026 0.15503758 -0.51415735 -0.14992699
0001f0 b1 e8 aa 3e 55 45 08 3f d6 07 e8 bd 75 5b c7 3e
       0.33380654 0.5323079 -0.113296196 0.38936964
000200 93 6f ab 3e 16 c4 db 3e 38 4a 27 bf 86 0b d2 3e
       0.33483562 0.4292304 -0.65347624 0.41024417
000210 d2 27 90 3e 7f 80 99 3d 56 6e 09 3f 0b 13 d4 be
       0.2815538 0.07495212 0.53683984 -0.4142078
000220 08 aa 25 3e f6 e9 64 3e bc 43 2a 3f 87 a9 95 3e
       0.16178143 0.22354874 0.66509604 0.29230902
000230 6e 3e 1b 3f 62 50 44 3f 67 b1 ec 3e 54 b2 b0 bd
       0.60642135 0.76685154 0.46229097 -0.086277634
000240 0d b1 01 3f 07 aa 55 3e 4a 19 a0 3e b6 de a2 be
       0.50660783 0.20865642 0.31269294 -0.3181054
000250 d8 26 e5 3e 80 22 1c 3d 6d a2 a6 3e ff 11 92 3e
       0.44756198 0.03811884 0.32545796 0.28529355
000260 12 28 c5 3e af 49 fb be 0f d3 aa be 2e 34 d5 3e
       0.38507134 -0.49079654 -0.3336415 0.41641372
000270 4e 3c d8 be 33 c2 c7 bd 01 55 ad 3d f9 51 6a be
       -0.4223351 -0.097538374 0.08463479 -0.22882833
000280 f8 f7 98 3f 05 1c a7 3e 73 d6 8c be 4b cb a2 3d
       1.1950674 0.32638565 -0.27507362 0.07948931
000290 da 4e 23 bf fb b7 a8 3e a4 2c 5b 3d ce ee e5 3e
       -0.6379219 0.32952866 0.05350937 0.44908756
0002a0 3e 8e 1e bf c3 ea ed be 1f be 55 be 54 74 b3 3e
       -0.61935794 -0.4646817 -0.20873307 0.3504969
0002b0 ed b7 71 3e a1 9c 34 bd ab 92 51 bd eb cc c9 3e
       0.23605318 -0.044094685 -0.051165264 0.39414153
0002c0 14 38 8b 3e 34 42 3d be 7d a6 d5 3d 8b 3f be 3e
       0.27191222 -0.18482286 0.10432146 0.37157854
0002d0 63 4d c5 3c 72 b5 34 be c6 10 61 3e bc 4f 84 3e
       0.024084752 -0.17647341 0.21979055 0.25842083
0002e0 ef 33 83 3e 9c 71 ff 3e 8f 93 b1 bd da 7e a5 bc
       0.2562556 0.49891365 -0.08670723 -0.02020209
0002f0 c6 3b ca 3d 9c 37 4f be 11 e9 a5 3e 1b f2 fa 3e
       0.09874682 -0.20236057 0.32404378 0.49012837
000300 76 e9 3a be a4 df 1e be 6a d6 ec bb 07 05 42 bd
       -0.18253121 -0.15515 -0.0072277086 -0.047368076
000310 e0 92 23 3f e2 99 b8 3e cb 0c 2d be e9 9d ca bd
       0.6389599 0.36054903 -0.16899411 -0.098934
000320 37 ee 24 3e d2 31 f0 3e bb 81 a4 3e 0f 0c e4 be
       0.16106497 0.4691301 0.32130226 -0.4454045
000330 42 34 72 3e 48 6f 98 be 83 47 a6 be 5e c4 bf be
       0.23652747 -0.297724 -0.32476434 -0.37454504
000340 ec 55 d1 3d 85 56 93 bd 71 22 d5 3d 09 8b 80 3e
       0.102214664 -0.07194237 0.1040696 0.25106075
000350 fb f4 45 bd a5 53 13 3f 78 f5 9f 3b 0d fe 55 3e
       -0.048329335 0.57549506 0.004881557 0.20897694
000360 d2 e4 fb 3e ff 0e 56 3f 64 af 70 bd 2a be 87 be
       0.49198014 0.8361663 -0.058761016 -0.2651227
000370 db 32 05 3e d2 e3 b4 3e 1c d0 84 be fc e6 4b be
       0.13007681 0.35330063 -0.25940025 -0.19912332
000380 a1 33 65 3f db 14 cb 3c fc ef 3e 3e b9 ba 1e 3f
       0.89531904 0.024790218 0.18646234 0.62003666
000390 bd f7 19 3f c5 e4 04 bf 2a 98 79 bd 28 2f 61 be
       0.60143644 -0.51911575 -0.06093613 -0.21990645
0003a0 af 83 37 3f f8 10 39 be 41 dd 2c 3f 40 f9 25 3f
       0.7168531 -0.1807288 0.67525107 0.6483345
0003b0 0d a0 bf be 0d 43 88 3e f2 ad fa 3b dc 2a 49 bd
       -0.37426797 0.26613656 0.0076501304 -0.04911314
0003c0 93 e4 a0 3d 4f 3c fe bd 12 89 d1 be b7 40 97 3e
       0.07856097 -0.12413847 -0.4092489 0.2954156
0003d0 5b 0b 4d 3a c8 36 92 bd 60 40 c0 3e b5 18 06 3f
       0.00078218215 -0.07139355 0.37549114 0.5238145
0003e0 c2 aa 8e 3e c5 0d 8c be d2 15 f8 bb 4a 35 4e 3d
       0.27864653 -0.27354255 -0.0075709606 0.05034379
0003f0 65 10 b0 3e 5d 6c a8 3e 29 1a 2e bf 46 0a b7 bc
       0.34387508 0.32895175 -0.6800867 -0.022343766

l1.bias f4 [8]
000000 ca d2 4c 3f ec 92 4d 3f 27 e1 2d 3f 71 69 3b 3f
       0.8000914 0.8030231 0.6792168 0.73207766
000010 17 3a 21 3f 89 ec 2d 3f bb be d8 3e 85 d4 f4 3e
       0.62979263 0.6793905 0.42333016 0.4781839

l2.weight f4 [8, 8]
000000 42 0b 5b bf 4e 42 6b 3f 7d 56 1f 3f a2 8a 55 3f
       -0.85564053 0.9189805 0.62241346 0.8341466
000010 52 08 8b bf 0e 55 c1 3f 56 74 e5 3e 6a 2c b4 3e
       -1.0861914 1.5104082 0.4481532 0.35190135
000020 fa 28 27 3e 20 4a ee bd 06 cd 17 3e 84 b0 a4 be
       0.16324225 -0.11635232 0.14824304 -0.3216592
000030 c8 09 bb 3d d6 9b 7b be 65 d6 b3 be 6a 22 92 be
       0.09132725 -0.24571165 -0.35124508 -0.2854188
000040 f8 64 6a 3d c3 29 62 be 99 7e a9 3f ed 85 5b 3f
       0.057225198 -0.22086243 1.324176 0.8575123
000050 17 36 7f bf 26 0d 08 3f 84 33 e9 3d 73 e9 89 3f
       -0.9969191 0.5314506 0.11386779 1.0774368
000060 51 97 67 3e 22 dd 3c bf 39 de 84 3f 45 32 be 3f
       0.22616316 -0.7377492 1.0380317 1.4859091
000070 27 89 d7 3f 06 6b 54 bf 1a 68 59 3e e5 74 2e 3f
       1.683873 -0.82975805 0.21231118 0.68147117
000080 d4 83 04 bf a9 16 65 3f 23 2c ac bd d0 e3 9d be
       -0.51763654 0.894877 -0.08406856 -0.3083787
000090 8d 96 c1 3e 68 a1 be 3f 6c 13 a0 3e a0 cf f5 39
       0.37810174 1.4893007 0.31264818 0.00046884734
0000a0 a8 ac c4 3f 21 b9 a9 3f 31 d6 07 3e 7d 4c 27 3e
       1.536519 1.3259622 0.13265301 0.16337772
0000b0 02 e9 44 bf 29 50 09 bf 41 44 51 bc a0 d6 4d bf
       -0.7691804 -0.5363794 -0.012772621 -0.80405617
0000c0 e4 f0 c2 bd fd c0 a1 3f 5d a7 38 bf c4 12 c5 3f
       -0.095186025 1.263702 -0.72130376 1.5396352
0000d0 22 92 7e 3f bb 4e 60 3f a4 69 b0 bf 81 70 f3 be
       0.9944173 0.87620133 -1.3782239 -0.4754677
0000e0 7e b4 cf 3f 9b d9 05 bd b5 f0 8e 3f 25 b2 bd bf
       1.6226957 -0.032678228 1.1167208 -1.481999
0000f0 98 ec 58 3f 0c a2 7d 3e 9d a9 ef 3f 5a 1b ae 3f
       0.84736013 0.24768847 1.8723637 1.3602097

l2.bias f4 [8]
000000 c3 5a 82 3e 31 61 9e be 6b 23 47 be e3 cc 8c 3e
       0.2545987 -0.30933526 -0.19447105 0.27500066
000010 d1 73 f6 bd 0e e3 10 3f b5 be 3c 3f cc 6a bc 3d
       -0.12033809 0.5659646 0.73728496 0.092000574

l3.weight f4 [11, 8]
000000 ae 15 1b 3f f0 63 4d 3d cc 19 76 3f 02 54 4c bf
       0.60579956 0.050144136 0.9613311 -0.79815686
000010 98 eb 1e bd 68 19 db be 19 9e 45 bd 11 56 cd bf
       -0.0387989 -0.4279282 -0.048246477 -1.604189
000020 2a 01 ec be b4 0d c5 3d ed 60 fc bd 9a 10 5e bf
       -0.46094638 0.09621754 -0.123231746 -0.8674408
000030 22 e6 8a bf d1 5e 82 3f 4c 6d aa 3e 5a 00 01 bf
       -1.0851481 1.0185186 0.33286512 -0.5039116
000040 3a 46 7a bf 45 5d 86 3e 07 16 b6 bf a5 5c 89 3e
       -0.9776341 0.26243034 -1.4225472 0.26828495
000050 3d a1 d0 3e 43 78 77 bf 41 c8 f1 be f0 31 82 3e
       0.40748015 -0.9666788 -0.47223094 0.25428724
000060 e1 12 01 3f e8 f6 54 bd 04 e8 25 3f 49 51 ff 3e
       0.5041943 -0.05199328 0.6480715 0.49866703
000070 1b 0f 8e bf f5 e6 cd bf 88 10 3b bf e7 4e b5 be
       -1.109836 -1.6086107 -0.730721 -0.3541176
000080 8f f8 6a bf 3a 52 86 be a7 61 e6 bf 6c 05 19 be
       -0.9178552 -0.2623461 -1.7998551 -0.14943475
000090 b9 7c 54 bf 6d d3 04 3f bb 54 a9 bf 8f c2 01 3f
       -0.8300281 0.5188511 -1.3228983 0.506875
0000a0 eb 77 8d bf 63 20 82 be ce 11 52 3e 73 39 c3 3e
       -1.1052221 -0.25415334 0.20514604 0.38129768
0000b0 95 02 94 bf a3 93 a7 bf b5 df f5 bf 26 8f 09 3f
       -1.1563288 -1.309193 -1.9208895 0.5373405
0000c0 35 e7 86 bf d0 64 f8 bc af 91 e4 bf 66 d8 68 3f
       -1.0539309 -0.030321509 -1.7856959 0.909552
0000d0 a2 ac 12 c0 d1 f7 16 bf 04 ab 2e 3f 9f 58 9d bf
       -2.2917867 -0.5897189 0.682297 -1.229267
0000e0 0f e7 fd 3e d0 b0 46 3d 17 67 36 3f e8 37 b1 bf
       0.49590346 0.048508465 0.7125105 -1.3845186
0000f0 ab 04 9f bd cc de 77 3d 4a eb a8 bf 3b 95 88 3e
       -0.07764562 0.06051521 -1.3196805 0.26676354
000100 50 81 f4 3e 40 e4 e5 3c 6b 2d 3e bf c0 8d e8 bf
       0.47754908 0.02806294 -0.7428805 -1.8168259
000110 51 0f 5c 3f d5 dc f0 bf ad 36 3f be 8a f1 50 3e
       0.8596087 -1.8817393 -0.18673201 0.2040464
000120 41 fe 14 3b 73 c6 b0 3e 33 b6 95 bf d8 86 3d be
       0.0022734555 0.34526405 -1.1696228 -0.1850847
000130 39 6a b1 3e 28 88 ae bf bf 7f ff 3e 18 4d 60 bf
       0.34651354 -1.3635302 0.4990215 -0.87617636
000140 be 14 e4 3e a6 87 5c be e4 ea da bf 15 fd 02 c0
       0.44547075 -0.21536121 -1.7102933 -2.046697
000150 3d 00 9d 3e 98 f2 13 3f d0 f2 18 3f 36 a7 f1 bf
       0.30664244 0.57792044 0.597455 -1.8879154

l3.bias f4 [11]
000000 9b bc 95 bd 2c 68 75 be 52 e8 58 be 9c f6 c8 bd
       -0.07311364 -0.2396552 -0.21182373 -0.09812662
000010 b2 d7 62 3e 34 db 45 be 96 29 b4 3e c8 97 1b be
       0.22152594 -0.193219 0.35187978 -0.15194619
000020 c1 4f 14 bd 8f 87 c8 be e7 42 c4 3d
       -0.03620887 -0.39165923 0.09583073
