collegebot/college_receptionist_data.pth (torch, 7804 bytes, 6 tensors)

l1.weight f4 [8, 94]
000000 aa 9d f8 bc e5 59 e9 3e bd de 81 bd 7c 72 46 3e
       -0.030348618 0.45576397 -0.06341312 0.1937961
000010 a1 75 78 be 9e 27 8a 3e b5 90 f9 bd a5 46 a0 3e
       -0.24263622 0.2698335 -0.12185804 0.31303898
000020 31 8e 3b bf bc 6a 66 3e d4 ec b2 3e 57 18 01 be
       -0.7326384 0.22501653 0.3494631 -0.12606941
000030 f3 6e 81 bd 2b 88 c7 be a9 dc 95 3d 76 62 f7 3e
       -0.0631999 -0.38971075 0.07317478 0.48317307
000040 1b 8e 19 3f da 43 d0 be 0c e9 e4 be 7b 0e e0 be
       0.5998246 -0.40676767 -0.4470905 -0.43761048
000050 d0 93 ae 3e ec 90 58 3f ca fa bb 3d 30 53 cf 3d
       0.34097147 0.84596133 0.091786936 0.10123289
000060 f5 e4 ed bd cc 80 56 3e fa 22 16 bf 96 11 00 be
       -0.11615936 0.2094757 -0.5864712 -0.12506709
000070 b4 4c 05 3e ee 76 ef bd 25 3e 83 3d b7 a3 2e 3f
       0.13017541 -0.11692606 0.064083375 0.6821856
000080 a8 e2 34 bd 1a fc 54 3e df 00 a0 3e f9 e4 42 3f
       -0.04416147 0.20799294 0.31250665 0.76130635
000090 a7 19 19 bf 25 72 a8 3d 45 80 10 bd 74 eb b6 be
       -0.5980477 0.08224896 -0.035278577 -0.3572651
0000a0 00 1c d8 3e 49 e8 d0 be 3e 75 8b 3e 24 29 a1 3e
       0.42208862 -0.4080222 0.27237886 0.314767
0000b0 7b 02 15 3f 1d 2b 28 3f 26 a7 d6 3e 88 30 01 3f
       0.5820691 0.65690786 0.419244 0.5046468
0000c0 9e 22 e7 be 49 bb 60 be d8 03 5a 3e d1 ba a6 3e
       -0.45143598 -0.21946444 0.21290529 0.32564405
0000d0 9e 9b 40 be c9 fe dc be 95 c0 c2 be d6 af b2 3e
       -0.18809363 -0.43163136 -0.38037553 0.34899777
0000e0 c3 4c 02 3d cf 79 58 3e f9 60 9b 3e c9 ee 29 be
       0.031811487 0.21140216 0.30347422 -0.16594996
0000f0 8b ac f7 bc 28 63 43 3f 6c e8 2f bf 46 53 9d 3d
       -0.030233642 0.76323175 -0.6871402 0.07681899
000100 0b d4 e9 3e 9c c4 9c 3e 60 3d 04 3f 11 0b e5 3e
       0.45669588 0.3061875 0.5165615 0.44735005
000110 b1 81 02 be 20 f1 4d bd 5c c9 ee 3e 41 8f c0 3e
       -0.12744786 -0.050278783 0.46638 0.37609294
000120 71 cc 70 3e f6 9f 42 be 4e 9e 26 bf 11 ce e5 be
       0.23515488 -0.19006333 -0.65085304 -0.4488378
000130 1a 69 bf bd f2 88 0d 3f 7e f1 e9 3e e0 cc 57 3d
       -0.093462184 0.55287087 0.45692056 0.05268562
000140 bd 81 70 bd 40 70 1c 3f 64 61 10 3f 81 ba 91 3e
       -0.058717478 0.6110878 0.56398606 0.28462604
000150 63 cc 4d bd a2 a4 8e bd 8d 9a 88 3d e2 03 ae bc
       -0.050243746 -0.06964995 0.06670103 -0.021242086
000160 f4 d1 a2 3e 87 2a 48 3e 58 bf fc bd 40 d8 89 3a
       0.31800807 0.19547473 -0.123411834 0.0010516718
000170 7e 01 01 3f 84 f9 0e 3f 56 d7 8f 3c 8e 66 ff 3e
       0.503929 0.5584948 0.017558735 0.4988293
000180 97 5d cb 3d 08 4d 09 bd ec 2a 0f 3d ee 88 5d 3e
       0.0992996 -0.03352073 0.034953043 0.21634266
000190 44 ea 0b bd 10 8b 71 bd a4 50 ec bd bd c4 b0 3e
       -0.03415896 -0.05897051 -0.115388185 0.345251
0001a0 cb d9 90 3e 74 cb 84 3b ad 7d 9b 3e ea bb aa 3e
       0.28291163 0.004052574 0.3036932 0.33346492
0001b0 d7 b0 f4 ba 2a a2 af bd 9c 37 d4 3e 9d b4 66 be
       -0.0018668425 -0.08575852 0.41448677 -0.22529836
0001c0 27 b0 b3 bd 1c 1c 35 3f 95 f1 ba 3e 8a 52 1b 3f
       -0.08773833 0.70746017 0.36512437 0.6067282
0001d0 2b 9c 50 be 15 4b ad 3e 6a c5 aa bd b7 2e a8 be
       -0.20372073 0.33846346 -0.08338435 -0.3284814
0001e0 46 53 2e 3f 46 a3 cb 3d ac 5a 84 be c9 46 ec bd
       0.68095815 0.09943251 -0.25850427 -0.11536939
0001f0 3c bf 2e 3d 05 b0 23 3f 88 4d 3e be d3 48 a6 3e
       0.042662844 0.6394046 -0.18584263 0.32477435
000200 79 f6 75 3e 08 8b 2e 3f 79 87 2f bf c7 d5 32 bd
       0.24019803 0.68180895 -0.6856609 -0.043660905
000210 d5 2e 68 3e 03 11 22 3e 4e 39 e4 3e 56 a4 65 3f
       0.22674115 0.15826802 0.4457497 0.8970388
000220 8e 81 88 3e 00 9d f3 3e 28 ad da 3e 82 68 73 3e
       0.26661342 0.4758072 0.42710233 0.23770335
000230 b9 08 02 3f 92 1d fd 3e 37 b9 8d be 2e 8a 08 3c
       0.5079456 0.49436623 -0.2768037 0.008333726
000240 e6 1b 82 bc 37 98 cf 3d 9e c3 26 be 91 da d3 3e
       -0.015882444 0.101364546 -0.1628556 0.4137769
000250 8c 90 3c be 80 15 7d 3e 4a 9c 2a be 8e 4a 24 3e
       -0.18414515 0.24715233 -0.16661182 0.16044065
000260 bb 97 39 3e 7b 90 90 be fb f1 dd bd 4e 9c 30 3e
       0.18124287 -0.2823523 -0.1083717 0.17247126
000270 85 1b 06 3f a3 c8 98 3d e5 53 cb 3e 57 42 2d be
       0.5238574 0.074601434 0.39712444 -0.16919838
000280 1d 9f 01 bf e2 16 d6 3e 12 a7 df bd 24 35 e4 bc
       -0.5063341 0.41814333 -0.10920538 -0.02785737
000290 07 37 55 3e 3c 3b 8a 3e aa 1a 1f bf 44 c8 52 3e
       0.20821773 0.26998317 -0.6215006 0.20584208
0002a0 d0 f8 32 bf e4 72 10 3f a4 f4 70 bd 4d 15 05 3f
       -0.6991091 0.5642531 -0.058827057 0.5198563
0002b0 d1 1a 80 3e 4d 3e 1d 3e 62 7f 88 3e 71 6b 28 3f
       0.2502046 0.15355797 0.26659685 0.6578894
0002c0 b9 9e d0 3e 25 43 0b be 44 e3 46 3e de 95 89 bc
       0.40746096 -0.13599832 0.19422632 -0.016795095
0002d0 7f f5 d1 bd 9e 62 04 3d 91 87 bc 3e ab f1 6e 3e
       -0.10251903 0.03232061 0.3682218 0.23334377
0002e0 89 af 4d 3e 52 4f a5 be cd ae 38 be 1b b6 e7 3e
       0.20086493 -0.3228708 -0.18035431 0.45256123
0002f0 3b 4a 4a 3e 8c eb 98 be f0 8c a9 be 79 59 cd bd
       0.19754879 -0.29867208 -0.3311534 -0.10026831
000300 99 70 43 bd d5 d6 97 be 23 01 7d 3e 14 5f c9 3e
       -0.047714803 -0.2965609 0.24707465 0.3933035
000310 de e1 35 bf 15 ef 0f 3f db bf fc be cc 25 17 be
       -0.7104777 0.56224185 -0.49365124 -0.14760512
000320 ba 61 27 be 5c 81 22 bf 45 c2 83 be ca 70 8f be
       -0.16345873 -0.63478637 -0.25734153 -0.2801574
000330 b8 dd 05 bf 6e 55 50 be 17 38 f1 bd a3 84 db be
       -0.5229144 -0.20345089 -0.117782764 -0.4287463
000340 3e c7 ca bd 34 6a 38 be 7b 96 7f 3e a6 6e be 3e
       -0.09901284 -0.18009263 0.24959747 0.37193793
000350 d5 9c cb 3e 6a 1a 49 bc 62 d6 80 3d ff 54 c2 be
       0.3976809 -0.012274364 0.0629089 -0.37955472
000360 8e b6 54 be 66 c2 dd 3e 40 c3 cc 3c 26 d2 d6 be
       -0.20772764 0.43312377 0.024995446 -0.41957206
000370 91 a9 7d 3e 2e 7f ef 3e d1 36 72 be 79 63 35 bd
       0.24771716 0.46776718 -0.23653723 -0.044284318
000380 7d 64 a2 3e c7 0d 38 3e 5b a7 36 be 57 14 08 bf
       0.3171729 0.17974006 -0.17837279 -0.53156036
000390 78 db 4a 3f ad 10 dc be 2c c7 1e be 41 12 45 be
       0.7924113 -0.42981473 -0.15505666 -0.19245245
0003a0 00 19 2f 3f c1 ed d4 be d2 7c 4d 3f ea ae 62 3f
       0.6839752 -0.41587642 0.80268586 0.8854815
0003b0 83 ac 02 3f 09 1a a6 3e f5 0f 21 3e 91 17 83 be
       0.5104448 0.32441738 0.15728743 -0.25603917
0003c0 59 14 cd 3e 4d b8 6f bd b5 9b 22 bf b9 f0 a2 be
       0.40054587 -0.058525372 -0.6351884 -0.31824282
0003d0 b1 de 05 3f 03 4c 01 bf aa 17 f7 3e d0 df 7b be
       0.52292925 -0.5050661 0.48260242 -0.24597096
0003e0 72 79 cb 3e 8d f6 e7 be 78 aa 8c ba 8a f4 99 3e
       0.39741093 -0.4530529 -0.0010731956 0.3006938
0003f0 73 da c2 be 6e 5d 19 3e 39 0e 4f 3f 92 44 c2 bd
       -0.3805729 0.14977047 0.8088108 -0.09485735

l1.bias f4 [8]
000000 fe 0f 23 3f 96 a9 4c 3f 36 03 36 3f 5f 5d e4 3e
       0.6369628 0.7994627 0.7109865 0.44602486
000010 87 49 d0 3e 13 22 6b 3f cb 5d 2a 3f 26 46 1e 3f
       0.40681097 0.9184887 0.66549367 0.6182579

l2.weight f4 [8, 8]
000000 89 55 a7 3f 6a 0c 56 3f e4 76 78 3f fa 21 83 3f
       1.3072978 0.8361269 0.9705641 1.0244744
000010 cb 54 be 3e c2 7b 7f bf f4 d0 ca 3e 70 5c df 3e
       0.37174067 -0.99798214 0.39612544 0.43625212
000020 c5 0d a0 3f 21 7c a1 3f d2 eb 73 bf 83 30 6e bf
       1.2504202 1.2616006 -0.9528171 -0.93042773
000030 20 f4 3d 3f c5 4b 96 3f 44 f0 9f bc 0c 5e 70 3f
       0.7420063 1.1741873 -0.019523747 0.93893504
000040 6c 89 95 bf 4f 76 fa 3e 5d 16 a8 be 55 66 ca 3f
       -1.1682563 0.48918387 -0.32829562 1.5812479
000050 68 42 89 3d ed 16 c9 3f 14 aa a3 3f 71 3e 8b bf
       0.06702119 1.5710121 1.2786279 -1.0878431
000060 7d 57 e1 3e 15 67 d0 be 75 a5 44 3f 13 be 44 bf
       0.4401206 -0.40703645 0.7681497 -0.7685253
000070 91 82 7c bf 07 4b 6f 3f 11 9d 8c 3f 00 32 8e be
       -0.9863673 0.9347386 1.0985433 -0.27772522
000080 51 7b 74 3e b6 d3 80 3f 0c bd 60 3f 28 55 dc be
       0.23875166 1.0064609 0.8778846 -0.4303372
000090 ee 97 c3 3f ef e4 ea 3e b6 f2 af bf 56 fb 9f 3f
       1.528074 0.45877787 -1.3745944 1.2498577
0000a0 cf 84 30 3f 87 bb eb 3e 14 56 b5 3f a6 35 1d bf
       0.6895265 0.4604151 1.4166894 -0.61409986
0000b0 93 ee a5 bc 18 1a 46 bf 06 9d a1 be 21 e4 0a 3f
       -0.020255363 -0.77383566 -0.31565112 0.5425435
0000c0 e6 fe 60 be 5e 55 56 bf ad 0e d3 3e 4b da b1 3e
       -0.21972236 -0.8372401 0.41222134 0.34736857
0000d0 f7 11 98 be 57 77 77 3f 43 0d 8c 3d a2 fd b3 3f
       -0.29701206 0.96666473 0.06838467 1.4061778
0000e0 a7 d0 30 3f 65 95 ca 3c 03 3f 29 bf dc 2e 57 3f
       0.6906838 0.02472944 -0.66111773 0.84055877
0000f0 0f 55 2f 3f 5e 7b 45 bf 1a 26 b3 3f 11 d6 73 3f
       0.68489164 -0.7714137 1.3996003 0.95248514

l2.bias f4 [8]
000000 2a 61 b2 3e ee 40 ca 3e 9a dd 6f 3f 34 98 46 3f
       0.34839755 0.39502662 0.9369751 0.77575994
000010 2a 6e 8d 3e 57 34 0c 3f 22 4d b2 bd 8a c0 c7 be
       0.2762311 0.54767364 -0.08706118 -0.39014083

l3.weight f4 [11, 8]
000000 f5 86 10 c0 02 75 6b 3e 4e 8c 52 3f 84 a1 d3 3e
       -2.2582371 0.22993854 0.8224534 0.41334164
000010 eb 7e cb bf 30 6f 06 bf 02 a2 57 be c6 b7 31 bf
       -1.5898107 -0.5251341 -0.21057895 -0.6942104
000020 0d 15 bc 3e 1f 38 23 3e 6b 7a bb bf bc f6 9c bf
       0.3673481 0.15939377 -1.4646734 -1.2262797
000030 f8 7a 53 3d 5f 3d 77 bd 04 13 04 c0 f9 a1 5f 3f
       0.051630944 -0.060361262 -2.0636606 0.87356526
000040 59 2b 20 3f e0 dc bf bf bc 9a 29 bf 45 91 94 bf
       0.62566143 -1.4989281 -0.6625173 -1.1606833
000050 f4 14 dc 3e dc f9 09 3e f4 19 a1 3d 60 bb 93 3e
       0.42984736 0.1347422 0.07866278 0.28853893
000060 85 7c f8 be 9f 70 1b 3e c0 b1 2d 3d 89 37 5b be
       -0.485325 0.1517968 0.042405844 -0.21407904
000070 67 e9 6e bf b4 51 3d bf b7 a9 8e 3e 77 c7 9e 3e
       -0.93324894 -0.73952794 0.27863857 0.31011555
000080 e2 1c 41 3f 61 2d 84 bf cd 23 25 3e b1 f7 94 bf
       0.75434697 -1.0326349 0.16126938 -1.163809
000090 fd be bf bf 33 8a 25 bf 93 f1 cf bf 6f 63 53 3f
       -1.498016 -0.64664 -1.6245598 0.825736
0000a0 a4 53 01 bf 96 35 03 c0 2f ee 39 3f bc ed aa 3d
       -0.5051825 -2.0501456 0.72629064 0.083461255
0000b0 72 ad b7 bf 42 c1 70 bf 46 8d 34 3f 17 4d 18 3e
       -1.4349806 -0.9404489 0.70528066 0.14873157
0000c0 28 27 4e be 3f 46 e6 3e 94 cf 0e 3f 0b 60 91 bf
       -0.20132124 0.4497547 0.5578549 -1.1357435
0000d0 61 3d 02 3f 0a a5 52 bf c0 25 d8 bf de 71 89 bf
       0.50874907 -0.8228308 -1.688652 -1.0737875
0000e0 49 47 c8 3e e7 6f 39 3e ea 50 c4 bf 98 d9 09 be
       0.39116886 0.18109094 -1.5337193 -0.13461912
0000f0 33 d1 1f 3f 31 c8 3d 3f c9 cf 62 bf ab 70 c7 bf
       0.6242859 0.7413359 -0.88598305 -1.5581259
000100 45 1b 3a bf 0f 34 37 3f 6c 77 92 bf 3e b4 4c bf
       -0.7269786 0.7156381 -1.1442695 -0.7996253
000110 bd 43 d0 3e ee 87 0e bf 17 55 d0 bd 75 30 81 3d
       0.4067668 -0.5567616 -0.101724796 0.063080706
000120 17 26 c3 bf 8f 9c cc 3e 8b 77 9e be 31 c2 ca be
       -1.5245999 0.39963195 -0.3095058 -0.3960128
000130 11 a9 0b 3f 84 2b b7 be 68 a1 5f 3f cf 1d ea bf
       0.5455485 -0.35775387 0.8735566 -1.8290347
000140 7b 16 e0 3e 35 d6 b0 bf 48 81 c8 be f0 4b 7d 3f
       0.4376715 -1.3815371 -0.39161134 0.98943996
000150 6c e3 74 bf 6c 8c e2 3e ad d8 00 bf b8 cb 82 be
       -0.9565952 0.44247758 -0.5033062 -0.2554605

l3.bias f4 [11]
000000 ea 55 58 3e d9 4c 66 bd fb 2d 33 be 77 3d 4f be
       0.21126524 -0.05622563 -0.17498009 -0.2023829
000010 cc 16 ed bd 86 d7 67 be 49 b5 12 be bb 55 b8 bd
       -0.11576614 -0.2264081 -0.14326967 -0.09000727
000020 5b be 04 bf f2 72 d1 be f7 5d af bd
       -0.5185296 -0.4090801 -0.08562844
